…
weight_decay: 0.0005
snapshot: 5000
snapshot_prefix: "examples/mnist/lenet"
solver_mode: CPU
net: "exper/simple/example.prototxt"
I0624 10:35:51.729360 21329 solver.cpp:70] Creating training net from net file: exper/simple/example.prototxt
I0624 10:35:51.729794 21329 net.cpp:42] Initializing net from parameters: 
name: "LeNet"
state {
  phase: TRAIN
}
layer {
  name: "mnist"
  type: "Data"
  top: "data"
  top: "label"
  transform_param {
    scale: 0.0039215689
  }
  data_param {
    source: "examples/mnist/mnist_train_lmdb"
    batch_size: 1
    backend: LMDB
  }
}
layer {
  name: "conv1"
  type: "Convolution"
  bottom: "data"
  top: "conv1"
  param {
    lr_mult: 1
  }
  param {
    lr_mult: 2
  }
  convolution_param {
    num_output: 2
    kernel_size: 5
    stride: 1
    weight_filler {
      type: "constant"
    }
    bias_filler {
      type: "constant"
    }
  }
}
layer {
  name: "conv2"
  type: "Convolution"
  bottom: "conv1"
  top: "conv2"
  param {
    lr_mult: 1
  }
  param {
    lr_mult: 2
  }
  convolution_param {
    num_output: 1
    kernel_size: 4
    stride: 1
    weight_filler {
      type: "constant"
    }
    bias_filler {
      type: "constant"
    }
  }
}
I0624 10:35:51.729871 21329 layer_factory.hpp:74] Creating layer mnist
I0624 10:35:51.729900 21329 net.cpp:90] Creating Layer mnist
I0624 10:35:51.729918 21329 net.cpp:368] mnist -> data
I0624 10:35:51.729955 21329 net.cpp:368] mnist -> label
I0624 10:35:51.729979 21329 net.cpp:120] Setting up mnist
I0624 10:35:51.730092 21329 db_lmdb.cpp:22] Opened lmdb examples/mnist/mnist_train_lmdb
I0624 10:35:51.730146 21329 data_layer.cpp:52] output data size: 1,1,28,28
I0624 10:35:51.730283 21329 net.cpp:127] Top shape: 1 1 28 28 (784)
I0624 10:35:51.730304 21329 net.cpp:127] Top shape: 1 (1)
I0624 10:35:51.730322 21329 layer_factory.hpp:74] Creating layer conv1
I0624 10:35:51.730343 21329 net.cpp:90] Creating Layer conv1
I0624 10:35:51.730360 21329 net.cpp:410] conv1 <- data
I0624 10:35:51.730386 21329 net.cpp:368] conv1 -> conv1
I0624 10:35:51.730412 21329 net.cpp:120] Setting up conv1
I0624 10:35:51.730460 21329 net.cpp:127] Top shape: 1 2 24 24 (1152)
I0624 10:35:51.730485 21329 layer_factory.hpp:74] Creating layer conv2
I0624 10:35:51.730509 21329 net.cpp:90] Creating Layer conv2
I0624 10:35:51.730522 21329 net.cpp:410] conv2 <- conv1
I0624 10:35:51.730540 21329 net.cpp:368] conv2 -> conv2
I0624 10:35:51.730558 21329 net.cpp:120] Setting up conv2
I0624 10:35:51.730587 21329 net.cpp:127] Top shape: 1 1 21 21 (441)
I0624 10:35:51.730609 21329 net.cpp:194] conv2 does not need backward computation.
I0624 10:35:51.730623 21329 net.cpp:194] conv1 does not need backward computation.
I0624 10:35:51.730636 21329 net.cpp:194] mnist does not need backward computation.
I0624 10:35:51.730648 21329 net.cpp:235] This network produces output conv2
I0624 10:35:51.730661 21329 net.cpp:235] This network produces output label
I0624 10:35:51.730679 21329 net.cpp:482] Collecting Learning Rate and Weight Decay.
I0624 10:35:51.730695 21329 net.cpp:247] Network initialization done.
I0624 10:35:51.730707 21329 net.cpp:248] Memory required for data: 9512
I0624 10:35:51.730985 21329 solver.cpp:154] Creating test net (#0) specified by net file: exper/simple/example.prototxt
I0624 10:35:51.731081 21329 net.cpp:42] Initializing net from parameters: 
name: "LeNet"
state {
  phase: TEST
}
layer {
  name: "mnist"
  type: "Data"
  top: "data"
  top: "label"
  transform_param {
    scale: 0.0039215689
  }
  data_param {
    source: "examples/mnist/mnist_train_lmdb"
    batch_size: 1
    backend: LMDB
  }
}
layer {
  name: "conv1"
  type: "Convolution"
  bottom: "data"
  top: "conv1"
  param {
    lr_mult: 1
  }
  param {
    lr_mult: 2
  }
  convolution_param {
    num_output: 2
    kernel_size: 5
    stride: 1
    weight_filler {
      type: "constant"
    }
    bias_filler {
      type: "constant"
    }
  }
}
layer {
  name: "conv2"
  type: "Convolution"
  bottom: "conv1"
  top: "conv2"
  param {
    lr_mult: 1
  }
  param {
    lr_mult: 2
  }
  convolution_param {
    num_output: 1
    kernel_size: 4
    stride: 1
    weight_filler {
      type: "constant"
    }
    bias_filler {
      type: "constant"
    }
  }
}
I0624 10:35:51.731155 21329 layer_factory.hpp:74] Creating layer mnist
I0624 10:35:51.731174 21329 net.cpp:90] Creating Layer mnist
I0624 10:35:51.731189 21329 net.cpp:368] mnist -> data
I0624 10:35:51.731210 21329 net.cpp:368] mnist -> label
I0624 10:35:51.731230 21329 net.cpp:120] Setting up mnist
I0624 10:35:51.731284 21329 db_lmdb.cpp:22] Opened lmdb examples/mnist/mnist_train_lmdb
I0624 10:35:51.731312 21329 data_layer.cpp:52] output data size: 1,1,28,28
I0624 10:35:51.731370 21329 net.cpp:127] Top shape: 1 1 28 28 (784)
I0624 10:35:51.731389 21329 net.cpp:127] Top shape: 1 (1)
I0624 10:35:51.731405 21329 layer_factory.hpp:74] Creating layer conv1
I0624 10:35:51.731423 21329 net.cpp:90] Creating Layer conv1
I0624 10:35:51.731437 21329 net.cpp:410] conv1 <- data
I0624 10:35:51.731454 21329 net.cpp:368] conv1 -> conv1
I0624 10:35:51.731474 21329 net.cpp:120] Setting up conv1
I0624 10:35:51.731511 21329 net.cpp:127] Top shape: 1 2 24 24 (1152)
I0624 10:35:51.731534 21329 layer_factory.hpp:74] Creating layer conv2
I0624 10:35:51.731554 21329 net.cpp:90] Creating Layer conv2
I0624 10:35:51.731566 21329 net.cpp:410] conv2 <- conv1
I0624 10:35:51.731587 21329 net.cpp:368] conv2 -> conv2
I0624 10:35:51.731631 21329 net.cpp:120] Setting up conv2
I0624 10:35:51.731667 21329 net.cpp:127] Top shape: 1 1 21 21 (441)
I0624 10:35:51.731688 21329 net.cpp:194] conv2 does not need backward computation.
I0624 10:35:51.731701 21329 net.cpp:194] conv1 does not need backward computation.
I0624 10:35:51.731714 21329 net.cpp:194] mnist does not need backward computation.
I0624 10:35:51.731726 21329 net.cpp:235] This network produces output conv2
I0624 10:35:51.731739 21329 net.cpp:235] This network produces output label
…
